…
Final decoder config {'EEG_size': 8, 'patch_size': 1, 'in_chans': 64, 'num_classes': 0, 'embed_dim': 200, 'depth': 3, 'num_heads': 10, 'mlp_ratio': 4.0, 'qkv_bias': True, 'qk_scale': None, 'drop_rate': 0.0, 'attn_drop_rate': 0.0, 'drop_path_rate': 0.0, 'norm_layer': functools.partial(<class 'torch.nn.modules.normalization.LayerNorm'>, eps=1e-06), 'init_values': 0.0, 'use_abs_pos_emb': True, 'use_rel_pos_bias': False, 'use_shared_rel_pos_bias': False, 'use_mean_pooling': True, 'init_scale': 0.001}
ddp is enable, so use ddp_reduce to sync the statistic_code_usage for each gpu!
Sampler_train = <torch.utils.data.distributed.DistributedSampler object at 0x7f867c702590>
Model = VQNSP(
  (encoder): NeuralTransformer(
    (patch_embed): TemporalConv(
      (conv1): Conv2d(1, 8, kernel_size=(1, 15), stride=(1, 8), padding=(0, 7))
      (gelu1): GELU(approximate='none')
      (norm1): GroupNorm(4, 8, eps=1e-05, affine=True)
      (conv2): Conv2d(8, 8, kernel_size=(1, 3), stride=(1, 1), padding=(0, 1))
      (gelu2): GELU(approximate='none')
      (norm2): GroupNorm(4, 8, eps=1e-05, affine=True)
      (conv3): Conv2d(8, 8, kernel_size=(1, 3), stride=(1, 1), padding=(0, 1))
      (norm3): GroupNorm(4, 8, eps=1e-05, affine=True)
      (gelu3): GELU(approximate='none')
    )
    (pos_drop): Dropout(p=0.0, inplace=False)
    (blocks): ModuleList(
      (0-11): 12 x Block(
        (norm1): LayerNorm((200,), eps=1e-06, elementwise_affine=True)
        (attn): Attention(
          (qkv): Linear(in_features=200, out_features=600, bias=False)
          (attn_drop): Dropout(p=0.0, inplace=False)
          (proj): Linear(in_features=200, out_features=200, bias=True)
          (proj_drop): Dropout(p=0.0, inplace=False)
        )
        (drop_path): Identity()
        (norm2): LayerNorm((200,), eps=1e-06, elementwise_affine=True)
        (mlp): Mlp(
          (fc1): Linear(in_features=200, out_features=800, bias=True)
          (act): GELU(approximate='none')
          (fc2): Linear(in_features=800, out_features=200, bias=True)
          (drop): Dropout(p=0.0, inplace=False)
        )
      )
    )
    (norm): Identity()
    (fc_norm): LayerNorm((200,), eps=1e-06, elementwise_affine=True)
    (head): Identity()
  )
  (decoder): NeuralTransformer(
    (patch_embed): PatchEmbed(
      (proj): Conv2d(64, 200, kernel_size=(1, 1), stride=(1, 1))
    )
    (pos_drop): Dropout(p=0.0, inplace=False)
    (blocks): ModuleList(
      (0-2): 3 x Block(
        (norm1): LayerNorm((200,), eps=1e-06, elementwise_affine=True)
        (attn): Attention(
          (qkv): Linear(in_features=200, out_features=600, bias=False)
          (attn_drop): Dropout(p=0.0, inplace=False)
          (proj): Linear(in_features=200, out_features=200, bias=True)
          (proj_drop): Dropout(p=0.0, inplace=False)
        )
        (drop_path): Identity()
        (norm2): LayerNorm((200,), eps=1e-06, elementwise_affine=True)
        (mlp): Mlp(
          (fc1): Linear(in_features=200, out_features=800, bias=True)
          (act): GELU(approximate='none')
          (fc2): Linear(in_features=800, out_features=200, bias=True)
          (drop): Dropout(p=0.0, inplace=False)
        )
      )
    )
    (norm): Identity()
    (fc_norm): LayerNorm((200,), eps=1e-06, elementwise_affine=True)
    (head): Identity()
  )
  (quantize): NormEMAVectorQuantizer(
    (embedding): EmbeddingEMA()
  )
  (encode_task_layer): Sequential(
    (0): Linear(in_features=200, out_features=200, bias=True)
    (1): Tanh()
    (2): Linear(in_features=200, out_features=64, bias=True)
  )
  (decode_task_layer): Sequential(
    (0): Linear(in_features=200, out_features=200, bias=True)
    (1): Tanh()
    (2): Linear(in_features=200, out_features=200, bias=True)
  )
  (decode_task_layer_angle): Sequential(
    (0): Linear(in_features=200, out_features=200, bias=True)
    (1): Tanh()
    (2): Linear(in_features=200, out_features=200, bias=True)
  )
)
number of learnable params in model.encoder: 5.818976 M
number of fixed params in model.encoder: 0.0 M
number of learnable params in model.decoder: 1.4898 M
number of fixed params in model.decoder: 0.0 M
total number of learnable params: 7.52264 M
total number of fixed params in : 1.056768 M
LR = 0.00020000
Min LR = 0.00001000
Weigth Decay = 0.00010000
…
